data/epoch=445-step=6243.ckpt (torch, 536607 bytes, 104 tensors)

encoder.1.weight f4 [38, 76, 5]
00000000: 6f5c c9b9 796f e13c 44f0 2cbd c2a2 1abd
00000010: 88db a1bc 9c61 613c 8c38 85ba 2b9a 263d
00000020: ea2c 95bb e666 5e3c b4d9 d8bc fbbb a3bc
00000030: 99c6 6fbd 1276 3cbd b958 1abd e1ff ea3c
00000040: 3399 bd3c b6b6 f63c 6f69 a6bc dec2 0cbc
00000050: a56f 07b9 2b31 ee3c 9191 c4bc 721b e43c
00000060: 707c debb 2ab3 663c 2e39 5d3d ba6f 2cbd
00000070: f2bd 0bbd f4fe 7bbc 874b a8bc c37e 1f3d
00000080: 3239 48bd b1de 1ebd e528 15bd fa4a 7fbd
00000090: e6fe 25bd 3e9b 0b3d 4e9b 293c b030 893c
000000a0: 29dc 8c3c 8ace 6abc ab2e 123c 2596 28bd
000000b0: 5513 a5bc f063 3abd 8498 883c 7645 993c
000000c0: 27c5 fdbc d80a babb 7d62 063d 3ae3 503d
000000d0: 3bc9 a63c 0916 e33b 01e2 0c3d 5070 f7bc
000000e0: 639e 1c3c 50e8 22bd aba1 11bd e616 d9bc
000000f0: 3f99 723c 1367 663c 5d2d 0ebd f840 513c
00000100: bc96 de3c 53c0 f43a eac9 ad39 0edc 713c
00000110: a036 363d 6a2d 813d 3995 51bd 959e 02bd
00000120: 4927 213c 549a 103d dabb 113d bb2c 453d
00000130: 5c7b ea3b ea8c 52bd 769a 263b 1121 d9bc
00000140: 24c9 6cbd 1f1e 183d d3b0 373d bff8 13bd
00000150: e4c7 b13c ad47 b7bb e5eb c2bc 8d6e 49bd
00000160: c53e 6b3c 9554 e8bc 6d31 133c 6f02 933c
00000170: 75d3 283d 68fe 033d 65a1 2abd 9aec c4bc
00000180: c91c 1e3c 02b6 64bc 722f 34bd 63c7 c1bc
00000190: abab 453d 3695 0d3d 4b3c b7bc 5189 53bc
000001a0: 0729 48bd fcb5 71ba a73b 1ebd e713 22bd
000001b0: a43d 39bb 6563 fc3b 5255 c5bb f2f8 323d
000001c0: c4e1 8cbc 37c5 713d cd30 4e3d e5ab 0cbd
000001d0: b37b 5abc d59d f239 acdf ac3c cfe6 483c
000001e0: 1092 b63c 1640 363c 82f6 99bc 1d8b d53c
000001f0: 81dd 24bd 2c7b ccbc 4fb0 03bc cfc0 9fbc
00000200: e904 3cbc 5125 32bd 0df6 43bc 6c02 6f3c
00000210: a019 08bd bfb7 f1bb 89d7 1d3d 856c 153c
00000220: dc18 4a3c 89d0 463c 13ed f63c 05f1 2d3d
00000230: 5666 1d3d 3829 e63c 11cf 353d 5ea6 26bc
00000240: d3f2 3abd e998 0abc 7c2b 3a3d e868 683c
00000250: 85ae 80bb 0ae3 cfbc 3ea4 44bd e357 31bd
00000260: 047b 2abc 6976 e63c 0b33 e33c 93a5 4abd
00000270: be11 033d d26b 24bd b9af 31bc 6865 aabc
00000280: bae3 21bc bc05 25bc 2f8d 3cbd 076d 35bd
00000290: a284 03bc 7ce8 2d3a a2e7 bebc ea4d 9e3c
000002a0: df1e 3dbd 18e3 62bb b0c8 383d af69 abbc
000002b0: 45bd 3d3d 1731 983c 1ba0 3dbd 4ef1 043d
000002c0: 4df9 c1bb 2c99 bbbc 0006 283d 19cc 29bd
000002d0: 2860 b43b 74f8 2fbc b30c 163d a59d 6a3c
000002e0: 8ced c93c 6a69 943c 511d 4abc 01c2 30bc
000002f0: 0228 2dbd 79b4 e33c bad4 263d 03c5 0f3d
00000300: df36 14bd 08f1 153b fb1e 14bd fc55 e7bc
00000310: 68e0 f4bc 7c9d 8f3c 4f6d fabc 17b2 92ba
00000320: cf63 17bb f8da d43c 048d 2fbd a986 27bd
00000330: 76f2 21bd cf51 513c a3fc 38bd 3980 a43c
00000340: 7261 e3b9 589e 8fbc ccb9 c93c a38c f03c
00000350: 8730 763d 78ae f43c 6b57 8e3c 381c 133d
00000360: 1df2 64bc a642 80bc dc00 4e3d 66cc edbc
00000370: 2629 363c c563 923d 38ee f13c 54c0 553b
00000380: 3f5a 26bd afd0 133d 4d06 04bd ad4c dfbc
00000390: a310 02bd dd78 13bc f1d0 493b 3fd4 4a3d
000003a0: 1e85 5f39 6464 f43c d4a9 7e3c 9890 abbc
000003b0: 9636 f13c 3e92 3abd c753 ffbc 7ef5 ae3c
000003c0: 9ac2 8a3c 60a3 1d3d 3b48 87bc 2939 ac38
000003d0: 8e59 d83c ac34 4bbd b7e9 173d d4c0 2dbd
000003e0: ce57 393a 5ce5 0ebc 4f86 babc 50ad c83b
000003f0: f8ce 363d 937b 8fbc 4f64 ffbc 51d1 b0bc
-0.00038406576 0.027518975 -0.042221323 -0.037752874 -0.019758001 0.013756182 -0.0010163947 0.04067437
-0.0045524733 0.013574338 -0.026470996 -0.019987097 -0.058539007 -0.046011038 -0.03768227 0.028686466
0.02314434 0.03011642 -0.020313947 -0.008591382 -0.00012916194 0.02907618 -0.023995193 0.027845118
-0.0067897364 0.014080802 0.05400961 -0.04209874 -0.034116693 -0.01538061 -0.020543827 0.03893925
-0.04888267 -0.038786594 -0.036415953 -0.062327363 -0.040526293 0.034083597 0.010351969 0.016746849
0.017194824 -0.014331469 0.008922259 -0.041158814 -0.02015082 -0.045505464 0.016674288 0.01870988
-0.030977799 -0.005677562 0.03280877 0.05099795 0.020359626 0.006930117 0.03439522 -0.030204922
0.009559247 -0.03977233 -0.03555457 -0.026500177 0.0148070445 0.014062661 -0.03471123 0.012771837
0.027171485 0.001867304 0.0003314757 0.014761938 0.04448569 0.0630749 -0.0511677 -0.031889517
0.0098360265 0.03530343 0.03557954 0.04813836 0.007155819 -0.051403917 0.0025421656 -0.026505025
-0.05780901 0.0371381 0.044846367 -0.036125895 0.02170176 -0.005593261 -0.023794124 -0.049177695
0.014358227 -0.028360644 0.008983952 0.017945496 0.041217286 0.032225043 -0.041657824 -0.024038602
0.009650418 -0.01395941 -0.04399056 -0.023654645 0.04825942 0.034566127 -0.022367617 -0.012911157
-0.04886725 -0.0009220538 -0.038631108 -0.03956976 -0.00282655 0.0077022784 -0.006022134 0.043694444
-0.017197497 0.05902597 0.05033951 -0.03434362 -0.013335156 0.0004627543 0.021102749 0.01226206
0.022286445 0.011123678 -0.018794302 0.026067311 -0.040250305 -0.024961077 -0.008037641 -0.019501118
-0.01147578 -0.04349262 -0.011960519 0.01458798 -0.033227563 -0.0073766406 0.03853563 0.009120111
0.0123350285 0.01213468 0.030142343 0.042466182 0.038427673 0.028095827 0.044386927 -0.010171501
-0.04564173 -0.008459308 0.045451626 0.014185168 -0.0039270543 -0.025376815 -0.048008196 -0.043296706
-0.010405306 0.028132634 0.0277343 -0.04947431 0.031999342 -0.040141888 -0.010845118 -0.020800307
-0.009880954 -0.010072168 -0.04603308 -0.04429343 -0.008027228 0.0006634069 -0.02330381 0.019324262
-0.04617202 -0.0034620222 0.045113266 -0.020924417 0.04632308 0.018578095 -0.046295267 0.03245669
-0.0059196115 -0.022900186 0.041021347 -0.04145441 0.005504627 -0.010740388 0.036633205 0.014319812
0.024649404 0.018116672 -0.012336091 -0.010788442 -0.042274483 0.027796017 0.040730216 0.035099994
-0.03618514 0.0022879262 -0.036162358 -0.028239243 -0.029892161 0.01753115 -0.0305697 -0.0011191991
-0.0023100262 0.025983319 -0.042859092 -0.040899906 -0.03953787 0.012775852 -0.04516281 0.020080673
-0.00043369416 -0.017531559 0.024624728 0.029363936 0.060104873 0.02986835 0.017375669 0.035915583
-0.01397374 -0.01565678 0.05029379 -0.029028129 0.011118209 0.07147936 0.029532537 0.0032615857
-0.04061341 0.036087688 -0.03223257 -0.027258242 -0.031754147 -0.009000984 0.0030794705 0.04951882
0.00021316527 0.029833026 0.01554342 -0.020942971 0.029444974 -0.045549624 -0.031167878 0.021357294
0.016938496 0.038485885 -0.016513934 8.212246e-05 0.02640989 -0.04961078 0.037088122 -0.042420223
0.0007070274 -0.008721676 -0.022769121 0.006124176 0.044630975 -0.01751498 -0.03117576 -0.021584185

encoder.1.bias f4 [38]
00000000: 531c 2abd 8fd5 debc 257a a93b b558 d53c
00000010: 41e8 41bd c61e 663c e65f 75ba 11a6 f4bc
00000020: b77c 5bbc 4b4b 253d e01b 16bd 72ca c0bc
00000030: ab70 1a3c f928 2bbd 32a7 ba3b b8f3 5f3c
00000040: d1e9 863c 2eb3 a03c bb61 383d b608 9a3b
00000050: 077b 3f3d 39d7 c0bc 1814 c03b 0161 05bd
00000060: 9e34 4dbd 90f8 db3b 0e1a 5cbb 74b8 debc
00000070: 860b c1bc d592 1fbd e3aa 263c 8a45 153d
00000080: d841 bebc 0293 363d 851e 26bd 4eac 2abd
00000090: 1e0f 4f3d 1d40 893c
-0.04153092 -0.027201442 0.0051720315 0.026043275 -0.047340635 0.014045423 -0.0009360298 -0.029864343
-0.013396434 0.040355008 -0.036647677 -0.023534033 0.009426276 -0.04178712 0.0056962008 0.013668947
0.016468914 0.01961669 0.045015078 0.0047007455 0.046748187 -0.023540126 0.0058617704 -0.032563213
-0.050099008 0.0067129806 -0.0033584866 -0.027187563 -0.023565065 -0.03895839 0.0101725785 0.03644327
-0.023224756 0.04457379 -0.04055645 -0.04166823 0.050551526 0.016754204

encoder.2.weight f4 [38]
00000000: 68a4 7d3f 1de7 833f 6a41 7f3f c94b 813f
00000010: 700f 803f c511 803f 089a 793f 8e3a 7d3f
00000020: 82ed 7d3f 982f 803f aa70 813f 2f28 7d3f
00000030: 5a61 7a3f 610a 803f af44 803f 91a9 803f
00000040: c347 803f d697 7d3f f0b9 843f 6b74 7c3f
00000050: 7333 833f a697 803f 3a0d 813f 1bc5 7a3f
00000060: 7363 7d3f c3b1 813f a2ae 7f3f 75fd 793f
00000070: 68d1 813f 0272 813f 6a41 7f3f 81b5 803f
00000080: d7ee 813f fe98 803f 0146 7c3f f349 7f3f
00000090: 7ce7 7b3f 93ab 813f
0.9907899 1.0304905 0.9970919 1.0101253 1.0004711 1.0005423 0.9750066 0.9891747
0.99190533 1.0014524 1.0112507 0.9888944 0.97804797 1.0003167 1.002096 1.0051748
1.00219 0.9905981 1.0369244 0.9861514 1.0250076 1.004628 1.0082161 0.9795701
0.9897987 1.0132374 0.99875844 0.9765237 1.0142031 1.0112917 0.9970919 1.0055391
1.0151013 1.004669 0.9854432 0.9972221 0.9840009 1.0130485

encoder.2.bias f4 [38]
00000000: fe70 3f3c a3fc 3c3d efc4 4dbb 5274 063d
00000010: 650a 70bc b11e cd3b bffa e33a 3b76 b43a
00000020: 8c7b 7dbc 10b4 d43a e154 cd3c 7001 933b
00000030: 7287 3dbc 56af dd3b 775d a53c 27ac 9b3c
00000040: c092 f9bc 4f1a 34bc e85c 563d fcdc 853c
00000050: 09ef a1bb b6b3 9c3c 21fc 673c 7ba1 23bc
00000060: b251 5cbb 37f9 293c e426 eb3b 5160 8ebc
00000070: 7a04 bf3b a3a6 c23b 5be6 ab3c efcf f83c
00000080: 5464 14bc e69d f2ba d5f5 223c 61b5 16bc
00000090: ab13 573c 40f4 23bc
0.011684654 0.04613937 -0.00313979 0.032825775 -0.014650916 0.006259762 0.0017393454 0.0013768146
-0.01547135 0.0016227979 0.025064887 0.0044862553 -0.011567937 0.0067652864 0.02018617 0.019002987
-0.030465484 -0.010992601 0.052334696 0.016340725 -0.0049418253 0.019128662 0.014159233 -0.00998723
-0.003361803 0.010374359 0.007176267 -0.017379912 0.005829391 0.005940275 0.020983865 0.030372588
-0.009057123 -0.0018510192 0.009946306 -0.009198518 0.013127248 -0.010006964

encoder.2.running_mean f4 [38]
00000000: cc81 34c2 c586 42c0 c2d4 83c2 6d23 7ac1
00000010: cbd4 91c2 f83b 4fc0 b4d1 45c2 ba2a 5240
00000020: a511 b6c2 3a60 9bc2 3e72 a53f bf64 68c1
00000030: acc2 b440 007f 9bc2 bd7b 3142 78ea e6c1
00000040: 7f47 95c2 7c1c 4242 0894 c041 3046 c5c1
00000050: 6cce 29c1 7a80 5542 4e02 1b42 02a0 20c2
00000060: 7584 44c2 9932 a6c1 86ac 50c2 925d c8c2
00000070: d149 3441 da21 d541 e57b 0242 0908 52c0
00000080: 895f 5641 d0e0 8a3f b79f 8bc1 08f8 9cc1
00000090: 5103 2dc1 ed91 12c2
-45.126755 -3.0394757 -65.91554 -15.633649 -72.91561 -3.2380352 -49.45479 3.2838578
-91.03446 -77.68794 1.2925489 -14.524596 5.6487637 -77.74805 44.37084 -28.864487
-74.63964 48.527817 24.07228 -24.659271 -10.612896 53.375465 38.75225 -40.156258
-49.129353 -20.774706 -52.16848 -100.182755 11.268022 26.64153 32.62099 -3.2817404
13.398324 1.0849857 -17.452986 -19.621109 -10.81331 -36.642506

encoder.2.running_var f4 [38]
00000000: e751 d444 37c8 c044 152f 3e45 89df 9e44
00000010: afe3 6345 8988 f144 91e5 0245 a2db a244
00000020: 234e 8945 ba62 4145 ccff 6744 2736 ac44
00000030: 3407 9744 61c3 3045 a43d 0045 683a 4f45
00000040: 7ab0 2b45 5ad1 1345 383e 9544 b36e c644
00000050: 49a5 8444 b81c 8f44 d317 8045 4769 8b45
00000060: 1e37 1345 9960 0845 e18f 4245 54e6 f245
00000070: 6702 9044 b048 ef44 48e8 a644 2088 9044
00000080: b764 3b45 68c9 0845 98bf eb44 673c b644
00000090: 77bd b744 ccbf c044
1698.5594 1542.2567 3042.9426 1270.9855 3646.2302 1932.2667 2094.348 1302.8635
4393.767 3094.1704 927.9968 1377.6923 1208.2251 2828.2112 2051.8525 3315.6504
2747.0298 2365.0845 1193.9443 1587.4594 1061.1652 1144.8975 4098.978 4461.1597
2355.4448 2182.0374 3112.9924 7772.791 1152.0751 1914.2715 1335.2588 1156.2539
2998.2947 2188.588 1885.9873 1457.8876 1469.9208 1541.9937

encoder.4.weight f4 [38, 38, 5]
00000000: 4a84 15bd 6f49 14bd 9642 07bc b707 84bd
00000010: 8a64 113d d743 d9bc 54bc 833d 8790 533d
00000020: ad31 493d 3ec1 83bd e3a4 323d 5d8d 1abd
00000030: c649 e8bc f343 373d 466b 8cbd ea21 a4bc
00000040: bf61 0c3d d4aa 00bd 25bc a13d 2d24 773d
00000050: 2a2e 7fbd f4da b53b c491 9abd 8fa2 1b3d
00000060: 9e51 d5bc 7f50 4e3c 1b73 04bd fe06 4a3d
00000070: 07ca ae3b ce45 62bd fa4f 86bd 4db9 ddbc
00000080: 57a5 c1bb 4dfa 8abc 65ba b9bb e77d 2dbd
00000090: 8392 32bc d695 a63c 0a5c 28bd 1d11 a1bc
000000a0: 23e9 23b9 1fbd 6e3d dd88 0aba e620 aabc
000000b0: e6b5 463d 75e1 e9bb 7c1f 1f3c c073 5abd
000000c0: c3a7 5dbd ca6e 733b 5bfc 353d 7f1c 2f3d
000000d0: 51a1 e93c 1057 d9ba 6a3e 3fbd c266 e5ba
000000e0: 4892 063c 4236 c93c 2ce7 53bc 28d6 3a3d
000000f0: 21df c73b 91c3 633d 64e0 5ebd 8c36 67bb
00000100: 79a2 1abd 4967 fcbb 33a0 91bd 9db9 35bd
00000110: d5e6 373d 4421 b33c a7f9 443d 86a2 de3c
00000120: 1d82 2c3d b796 34bd b5cf af3c c9a9 92bd
00000130: 797c 5dbd d46c 81bd 3d7b 503d ef85 0a3d
00000140: b657 73bd 7764 cebb aa21 583d 2963 5abd
00000150: 9a8d 8bbd 5798 76bd 4edd 9abc c0cb 613d
00000160: 94e0 8c3b b039 bfbc 27eb 973a 9724 87bc
00000170: 89dd 11bd 5b39 873d a3a3 00bd 7830 0bbd
00000180: 2173 13bd d8fd 3d3d 7a68 7cbd ce9a 563d
00000190: e5e9 3ebd 5e29 7cbd 8448 c23c 58f9 053d
000001a0: 94b7 73bd 62ff 2b3d 68d8 3bbd cbae 23bd
000001b0: 09f0 313d 9cd1 8a3d 42f5 8fbd 77c0 58bd
000001c0: 00ce 70bd fd7d 90bc 8f82 cbbc 8739 683d
000001d0: 5544 eb3c f942 3cbd 2722 db3a c289 11bd
000001e0: 96a6 533c 037d d93c 6d50 7bbd 8e52 9e3d
000001f0: 97b3 2e3d 5aab 90bd 0723 eebc f082 923d
00000200: e61c a93c a17b 12bd b832 4bbd 09cf a0bd
00000210: 0291 2e3c de2a 43bd 7974 613d 6fda b73c
00000220: 5549 0bbd 0909 773d 551d 52bb 3c31 17bd
00000230: 7ec3 7fbd 4069 aebc 39c2 0c3d cc6f 333c
00000240: 0a38 95bc ea3a 8abc 52d3 5fbc b943 36bd
00000250: 268c 943d 536c 71bd b6f7 f5bb 8a91 1d3c
00000260: b732 89bb 8547 cfbb 92c9 6ebd 1dfc eabc
00000270: 4927 38bd 3706 813d 08eb a8bc 0607 4cbd
00000280: 5bac 5fbd 6a23 68bd 2b33 ccbc 5e7d 58bd
00000290: e8e3 9cbd 20cf 0cbd 4f6e 4f3d cf3c 8bbd
000002a0: 3615 25bc 15d8 7c3d 4896 573d af76 c73c
000002b0: c5e6 143d 0c0e b3bc 1761 74bd 3adb ebbc
000002c0: a6d3 e1bc 9135 8f3d 14e1 9d3c ce36 32bd
000002d0: e34d 43bd 01da 14ba 4ae2 223d 5fbd 993b
000002e0: 16d8 6a3c 3913 9bbc cc63 f3bb cc69 f93c
000002f0: 92ac 0b3c 3ead 38bd d6cf 853d d830 1a3d
00000300: d965 df3b d7a3 7b3c 2a82 c33c 9bd9 efbc
00000310: d63f 9dbb 6e47 05bd 7e1d ebbc 284b 933a
00000320: 4f91 29bd 3add 8e3d 104c 35bd 8f08 2fbd
00000330: ab61 36bc b316 8a3d 7ab9 b5bc a4ae 903b
00000340: ffb7 3a3d 3a08 76bd d64a aa3d 517f 653d
00000350: ac67 273d 37af 6b3c 3cf2 4e3d d863 3ebc
00000360: ba70 5c3c 0b27 783d 7e1e 11bd a5dd d33b
00000370: 25c4 6a3d 60a9 693c a37a efbc e71c df3c
00000380: 0135 d4bb b730 35bd 6a62 713c 66d3 5d3c
00000390: cf76 553d 320e 363b 7c4a 42bd dc90 933d
000003a0: 03a1 c33c bb75 58bc b5a2 513d 7e4b 423d
000003b0: 58a7 393d 2b08 553d acbf 01bd dc5d 853d
000003c0: 9762 173c 6be5 adbd a113 903b 6d2d 92bd
000003d0: 3a02 e03a 9bfd 35bd 218c 053d 73a6 03bd
000003e0: 47d3 4d3c a360 79bc 5ab7 4c3d 18bd 303c
000003f0: 03ca 3f3d 660a 69bc 1745 3a3d deef 2e3d
-0.036503114 -0.036202844 -0.008255621 -0.06446784 0.035496272 -0.026521606 0.06432405 0.051651504
0.04911964 -0.064333424 0.04361428 -0.03773247 -0.02835549 0.044742536 -0.06856398 -0.020035703
0.034272905 -0.031412914 0.07897214 0.060337234 -0.062299885 0.005549783 -0.07547334 0.037996825
-0.026039895 0.012592434 -0.032336336 0.049323075 0.005334142 -0.055242352 -0.06558223 -0.027065897
-0.0059096026 -0.016965056 -0.005667972 -0.042356398 -0.010899189 0.02033512 -0.0411034 -0.01966148
-0.00015631742 0.05828583 -0.00052846764 -0.02076764 0.048513316 -0.0071374723 0.009712096 -0.053333044
-0.05411507 0.0037144893 0.044430118 0.042751785 0.028519304 -0.0016581733 -0.046690382 -0.0017501938
0.008213587 0.024562005 -0.012933534 0.04561439 0.006099597 0.05560643 -0.054413214 -0.0035280315
-0.037752602 -0.0077027422 -0.07110634 -0.044366468 0.044897873 0.021866448 0.04808965 0.027177107
0.042116273 -0.044089045 0.021461347 -0.0716129 -0.054073785 -0.063195854 0.05089878 0.033819135
-0.05940982 -0.0062985974 0.05276648 -0.053317223 -0.06814118 -0.060203876 -0.018904354 0.05512595
0.0042992327 -0.023342937 0.0011590467 -0.01649694 -0.035611663 0.066027366 -0.031406056 -0.03398177
-0.035998467 0.046384662 -0.061623074 0.052393727 -0.046609778 -0.06156289 0.023716219 0.032708496
-0.059501246 0.0419916 -0.045860678 -0.039961617 0.043441806 0.06778261 -0.07029201 -0.052917924
-0.058790207 -0.0176382 -0.024842529 0.056695487 0.028719107 -0.045962308 0.0016718552 -0.035531767
0.012918135 0.026548868 -0.061355997 0.0773059 0.04265174 -0.07063933 -0.029069437 0.071538806
0.020643663 -0.035762433 -0.049608916 -0.07851989 0.01065469 -0.047648303 0.055042718 0.022443024
-0.03400548 0.06031135 -0.003206094 -0.036912188 -0.062442295 -0.021290421 0.034364913 0.010951947
-0.018215198 -0.016873796 -0.0136612225 -0.04449818 0.07253294 -0.058941197 -0.007506336 0.009617219
-0.004186954 -0.0063256645 -0.0582977 -0.02868467 -0.04495934 0.063000135 -0.020619884 -0.049811386
-0.05460773 -0.0566744 -0.024926743 -0.052853934 -0.07660657 -0.034377217 0.050642308 -0.06798708
-0.010075858 0.06172951 0.052633554 0.024348585 0.03635289 -0.021857284 -0.059662905 -0.028791059
-0.027566742 0.06992639 0.019272365 -0.043509297 -0.0476817 -0.0005678237 0.039766587 0.0046917642
0.014333745 -0.018930065 -0.007427668 0.030445956 0.008525031 -0.04508709 0.06533782 0.037644237
0.006817561 0.015358887 0.023865778 -0.029278567 -0.0047988696 -0.032538824 -0.028700586 0.0011237608
-0.041398343 0.06975789 -0.044261992 -0.04273277 -0.011131684 0.06742611 -0.022183169 0.00441535
0.04558563 -0.06006644 0.08315055 0.05602962 0.040870354 0.014385036 0.05052398 -0.011620484
0.0134546105 0.06058411 -0.03542947 0.006465631 0.057315964 0.014261574 -0.029233282 0.027235461
-0.006476045 -0.04423591 0.014732936 0.013539171 0.052115258 0.0027779457 -0.047434315 0.07205364
0.023880487 -0.013211663 0.05118056 0.047435276 0.045325607 0.052009743 -0.031676933 0.06512043
0.009239814 -0.08491024 0.004396871 -0.071375705 0.0017090507 -0.04443131 0.03260434 -0.03214116
0.0125625795 -0.015220794 0.049979545 0.010787271 0.046823513 -0.014223671 0.045476045 0.042709224

encoder.4.bias f4 [38]
00000000: 2605 6abd ac2d 3cbd 2efb d73c 669e 563d
00000010: 3e8f 603c ff18 bc3c a5d1 533d 8163 2c3d
00000020: 0cbe 153d 1b20 b23c f09c 7abd 071e 603c
00000030: c494 8a3c 3429 503d c3c6 733c 8bbb 01bd
00000040: 7c8b fe3c 593b e4bc e9bc 19bd 8da7 883d
00000050: 0f55 4abd ae7b 8a3d a9b3 9bbc c3fe 9bbc
00000060: 4dfe 893d 0858 653c bbd0 823d e61d 8d3d
00000070: e8a1 813c 8060 74bd 85c4 62bd f732 18bc
00000080: eb9b 04bd 9e92 143c 7236 823d 44a1 b6bc
00000090: 7eeb 58bd 283b 553d
-0.057133816 -0.045941994 0.026364889 0.052397154 0.013706027 0.022961138 0.051713604 0.04208708
0.036558196 0.021743825 -0.061184824 0.013679034 0.01691664 0.050820544 0.014878931 -0.031672996
0.03107237 -0.02786033 -0.037533674 0.06672583 -0.049397524 0.06761871 -0.019006567 -0.019042378
0.06737957 0.013998039 0.063874684 0.06890468 0.015824273 -0.059662342 -0.055363197 -0.009289495
-0.032375257 0.009068159 0.06358041 -0.022293694 -0.052958958 0.05205837

encoder.5.weight f4 [38]
00000000: f5f2 7d3f 4b07 803f 9e4f 7f3f a95d 813f
00000010: 13b5 7e3f 5890 7e3f 964f 803f 7466 7b3f
00000020: 19dd 823f 765c 7b3f ca2a 813f aad9 7c3f
00000030: afc6 7d3f 8732 7d3f 015c 7d3f 83dc 813f
00000040: 5fd1 7f3f df74 7e3f 559a 813f 27d8 803f
00000050: 0fdd 7f3f 498f 7e3f 153c 7e3f 200b 813f
00000060: 2251 803f 2d0f 803f 6808 813f c34c 813f
00000070: f4c4 7f3f 3583 833f b9c4 813f 4967 7f3f
00000080: 0ba2 7c3f 2a85 7e3f 3569 773f 27b9 7c3f
00000090: c860 833f 6b12 803f
0.9919885 1.0002226 0.9973086 1.0106708 0.9949505 0.99439 1.0024288 0.98203206
1.0223724 0.9818796 1.0091183 0.9876963 0.9913129 0.98905224 0.9896851 1.014542
0.9992885 0.9939708 1.0125223 1.0065964 0.99946684 0.99437386 0.9931043 1.008152
1.002476 1.0004631 1.008069 1.0101551 0.999099 1.0274416 1.013816 0.99766976
0.9868476 0.9942194 0.9664491 0.9872002 1.026391 1.0005621

encoder.5.bias f4 [38]
00000000: f987 aa3c be21 7c3b 574a 1b3c ca31 66bc
00000010: 6f4c a73b 745d afbc d8ee 863b 5cd1 8bbb
00000020: 897f 5f3c 83a3 6ebc 5436 b93b 7979 a53a
00000030: 8395 863c 5bb0 69bc df59 5dba 9e0b 793c
00000040: 0287 c0b8 a186 a43a 2270 1d3c c841 e93b
00000050: 7cb3 33bc f0da 2d3a 7866 76bc 36c0 943b
00000060: e563 2b3b 1029 c33b 66c0 4d3c f364 a73c
00000070: 8d8c a33c d105 833c 1cb2 613c 741e bbbb
00000080: 47f1 a73b 1266 35bc 3d94 72bc ca18 433c
00000090: 641d 063d 7581 a9bb
0.02081679 0.003847226 0.009478173 -0.014049957 0.005105547 -0.021406867 0.004117828 -0.004266901
0.013641247 -0.014565351 0.0056522284 0.0012624703 0.016428715 -0.014263238 -0.0008443873 0.015200524
-9.1804206e-05 0.001255233 0.009609254 0.0071184374 -0.010968085 0.00066320505 -0.015039079 0.004539515
0.002615207 0.0059558228 0.012558078 0.020433879 0.01996448 0.015993984 0.013775375 -0.0057104174
0.005125198 -0.011071699 -0.014805851 0.011907766 0.032742873 -0.005172903

encoder.5.running_mean f4 [38]
00000000: 0fd4 15bf 4e43 95bd ff17 f53d f40b ed3e
00000010: b074 98be b7ac 863d 8907 7d3e 006c 55bd
00000020: 60d0 293e 648b 343d 67f8 5a3d a1bd bf3e
00000030: 3637 83be 3d18 c83c c7bf 273e a94a 87be
00000040: 7c5f e73d 49a1 2a3f 66b6 b0be 9b30 0b3d
00000050: 81cd a03e b4da 6ebe 94c2 003e 0435 61bd
00000060: 9333 903e b0e4 efbd 6ed2 9a3e 2699 f6be
00000070: c19b f93d 8574 73be ea81 ed3b dad7 34be
00000080: effd 36bd 3c4a 92be 9dfd ad3e d456 fc3d
00000090: f171 0ebe 55df a3bd
-0.585267 -0.07288228 0.119674675 0.46298182 -0.29776525 0.065759115 0.24709906 -0.05210495
0.16583395 0.044078246 0.05345955 0.37449363 -0.2562806 0.02442562 0.16381751 -0.2642415
0.11297509 0.6665235 -0.3451416 0.0339819 0.31406787 -0.23325616 0.12574226 -0.0549822
0.28164348 -0.117135406 0.3023867 -0.48163718 0.12187911 -0.23774917 0.007248153 -0.17660466
-0.044675764 -0.2857226 0.33982554 0.12321249 -0.13910653 -0.080015816

encoder.5.running_var f4 [38]
00000000: d8f0 833e 5004 663e f004 443e 3236 2f3e
00000010: cc65 ed3d 20be 273e 64f3 193e f9a2 973e
00000020: 68d4 203e f873 293e 5ec6 073e 30ff 413e
00000030: 81f7 ff3d 47d2 833e 59b3 0a3e bb95 5a3e
00000040: f6c6 153e 3d02 813e 233d 313e 14b3 7a3e
00000050: 15c5 f43d 0e53 0e3e a861 313e 4fd4 0e3e
00000060: 58a2 0d3e a043 9b3e 151e 2c3e 64bd 4b3e
00000070: d7a4 013e cd6d 0e3e 5787 eb3d c2bb 893e
00000080: 9203 483e bb0c 213e 6a47 063e eb97 4b3e
00000090: d8e2 ea3d bad3 093e
0.25769687 0.22462583 0.19142509 0.17110518 0.11591682 0.1638112 0.15034252 0.29616526
0.15706027 0.16548145 0.13259265 0.18945003 0.124983795 0.25746366 0.13544978 0.2134618
0.14626679 0.2519702 0.17308478 0.24482375 0.11951653 0.1389887 0.17322409 0.13948177
0.1383146 0.3032503 0.1680835 0.19896466 0.12660538 0.13909073 0.115004234 0.2690106
0.19532612 0.15727513 0.1311318 0.19882171 0.11469048 0.13459674

encoder.7.weight f4 [38, 38, 5]
00000000: 247d 5fbd 0d58 51bd 6663 cabc ac7c 9c3d
00000010: e9aa c6bb 2a92 bd3d 57f2 343c 5ef4 183b
00000020: 1451 b13a a65f cbbc 7581 7bbd 162b 97bc
00000030: c11d 003c aff1 3e3c 9371 98bc c459 a33c
00000040: ed42 8d3d 95ad e73c 5427 43bd df60 6cb9
00000050: 2793 57bc 4e42 0a3b 4fa0 58bd e7e9 a9bc
00000060: 0893 843c 45fc ff3c 1722 a33d 5bb9 2e3d
00000070: 7368 edbb 3582 d33c 02aa 423d 9b5e c03c
00000080: 39bd 7a3d 1604 5f3d 9e5a 76bd 9e7b 3fbd
00000090: 4893 8a3d cb8d 75bd 04ab 7c3d 3a12 86bd
000000a0: 3600 723c 9245 3a3d c1e0 fabc 1f1a 853d
000000b0: b155 5d3d 179a 5ebd aa8d 6abd 215d 9d3c
000000c0: 7643 2abd 4d02 7ebc 8cf2 dfbc 2687 393d
000000d0: ed7d acbc fa44 00bd 9ba1 ea3c b3b3 79bd
000000e0: 9190 2d3d 2c24 3abc 369d d9ba e687 303c
000000f0: ca42 18bd 2f99 d53b 8350 bb3c 9ad0 483d
00000100: a8d6 a33a 3650 1f3d cd2e 8fbd 8923 943c
00000110: 6c06 093d 47b1 4cbd 64ce 4a3d 5016 693d
00000120: 1a02 a1bd cf78 183d e53b 1d3d 8f5d 75bd
00000130: c4ad 77bb c9ce 16bd edb0 72bd 6ac8 02bd
00000140: d98a 25bd 0063 8cbc ae8b 4f3d 9a0b 1b3d
00000150: 84cf 12bd a7b1 06bd d6aa 263c b2c6 06bd
00000160: 4824 c2bc eef5 a23c 5c7b 88bd 319d 013c
00000170: 1b65 bb3c 8e72 3dbd 8c8b a3bc 0b1b 5d3d
00000180: dafb 593d 9200 983d a570 ad3c a6ae 853c
00000190: 0275 693d b5d8 5bbd 6b5c 9abd 451a 3c3d
000001a0: f4b3 3dbd 8da2 a43c b87c 6a3d 3309 a7bc
000001b0: 3d22 b63c 433b 4ebc 41f0 163d a708 4e3d
000001c0: d53f 4dbb 7ef9 c4bc 80e6 6c3d af6b bcbc
000001d0: 6597 babc 14d2 6b3d 12d1 ce3c 7866 283d
000001e0: f731 b13c 0291 4bbd a41f 02bd 80f9 8d3c
000001f0: 886e a33d d757 79bd 638e 48bd 3a3f 23bb
00000200: e7da b2bc dce7 81bd 05fb 293d a50d e23c
00000210: cf26 b9bc 5e04 47bd 049a 813c 1ab1 06bd
00000220: 7fa0 293d 34b2 883d 64eb 12bd 6be4 08bd
00000230: 284c 68bd 1314 24bd 429a 6fbc 7713 90bd
00000240: f59b 043d 73d8 99bc e5ae 093d 6ca4 5f3d
00000250: 66c1 e83c 8eb6 23bd 7a77 ad3c cd40 4bbd
00000260: ddd3 23bd 9513 e83c 7e67 d3bc e352 563b
00000270: 12a5 643d 1d9e 193d c8fb 173d eb0c 12bd
00000280: 9f74 693d 4ec3 633d cb5b a8bc b210 653d
00000290: d536 503b b041 7ebd bc23 ad3c 30c1 74bd
000002a0: be43 163d 8887 933d 376d 4cbd 5a82 033d
000002b0: 932e 4a3d 392f a2bd c9d8 39bd 2ebe 7f3d
000002c0: 89c1 cd3c 9a0e db3c a5eb 76bc fdb3 7b3d
000002d0: 72a3 47bb a8bb 4cbd 8a1d 5fbd 07b1 b4bd
000002e0: 0f20 93bd e192 bb3c 9435 0a3d b1ba 28bc
000002f0: 45c3 79bd 1888 fcbb 1147 3d3d 0b45 be3b
00000300: 8d4f 8bbc f697 753d a2ee 863d 46b8 5a3d
00000310: 104d 00bd 6ca1 37bc 123c 2d3d dc18 823d
00000320: f962 aa3c 437c 8fbd 7d98 a0bd 19a6 473c
00000330: 005d 9ebc 3267 0e3c c13a aa3d 7ca3 d53c
00000340: eeb5 5dbd c536 bc3b edbe 46bd 8dd9 a33c
00000350: cffc 18bb c1af 1b3d ec63 7bbd 05e9 003d
00000360: fedb 6a3d 84c1 9d3d 3d7a 62bd 6e5b c4bc
00000370: 89fb c3bc 51a2 97bd 10f2 8ebd 6b2a 8cbd
00000380: 60a8 51bc dc4d 75bb 9529 aebc 4845 0cbd
00000390: bc22 62bd 89e1 cf3a 6303 ccbc 9dfb 9f3d
000003a0: d3b9 f3bc ac22 1abd 471c 5dbd f4fe 8abd
000003b0: 9d1c 823d 43a4 9f3c 7319 f03c fd8b 143c
000003c0: 0be2 f4b9 ae4f 0f3d c771 81bd 1484 1abd
000003d0: 4671 b9bc bcda 01bd 4272 a93c f8ed b0bc
000003e0: 3b93 703d e5ba 263c fd57 9bbd 9a98 95bc
000003f0: 6002 9f3c 409d 303c 709f 39bd 7524 033d
-0.054562703 -0.051109362 -0.0247056 0.07640967 -0.0060628545 0.09256394 0.011044106 0.0023339014
0.0013528191 -0.024825882 -0.061402757 -0.018453162 0.007819594 0.011654302 -0.018608844 0.019940265
0.06897531 0.028281013 -0.047644928 -0.00022542801 -0.013157642 0.002109665 -0.052887257 -0.020741416
0.016183391 0.031248221 0.079654865 0.042657237 -0.0072451173 0.025818923 0.047525413 0.023482611
0.061215613 0.054447256 -0.060145013 -0.04674875 0.06766373 -0.059949677 0.06168653 -0.06546445
0.014770558 0.045476504 -0.03062475 0.06499123 0.0540368 -0.05434617 -0.057264008 0.019209446
-0.041568242 -0.015503478 -0.027337335 0.045294903 -0.02105614 -0.03131578 0.028641513 -0.06096239
0.042374197 -0.011361163 -0.0016602639 0.010774588 -0.03717307 0.006518505 0.02286554 0.049027063
0.0012499886 0.038894854 -0.069913484 0.01808335 0.03345339 -0.049973752 0.049513236 0.056906044
-0.07861729 0.037224587 0.038387198 -0.059903678 -0.0037792781 -0.0368183 -0.05925076 -0.03192941
-0.04041562 -0.01713705 0.05067032 0.03785286 -0.035842434 -0.032884266 0.010172566 -0.032904334
-0.02369894 0.019892659 -0.06664154 0.0079110125 0.02287536 -0.046251826 -0.019964002 0.05398087
0.0532187 0.07421984 0.021171877 0.01631863 0.056996353 -0.053673465 -0.075371586 0.04592349
-0.046314195 0.020097042 0.057247847 -0.020390129 0.022233123 -0.012587371 0.036850218 0.05030122
-0.0031318564 -0.024044748 0.05783701 -0.023000566 -0.022777269 0.057573393 0.025246177 0.041113347
0.02163027 -0.049698837 -0.031768456 0.017330885 0.079800665 -0.060874786 -0.048963916 -0.0024909512
-0.021832896 -0.06343052 0.041499157 0.027594397 -0.022601513 -0.04858815 0.01582051 -0.03288374
0.041412827 0.066746145 -0.035869017 -0.03342096 -0.056713253 -0.040058207 -0.01462418 -0.070349626
0.032375295 -0.018779969 0.033614058 0.054600164 0.028412532 -0.03996902 0.021175135 -0.049622346
-0.03999697 0.02832965 -0.025806185 0.0032703213 0.055821486 0.037504304 0.03710535 -0.03565685
0.056995984 0.05560618 -0.020551583 0.055924125 0.0031770964 -0.062074363 0.021135204 -0.05975455
0.036685698 0.07203585 -0.049908843 0.032106735 0.049360823 -0.07919163 -0.045372758 0.06243723
0.025116699 0.026740361 -0.0150708305 0.061450947 -0.0030462411 -0.04998365 -0.05447153 -0.08822828
-0.07183849 0.022897186 0.033742502 -0.010298417 -0.06097724 -0.0077066533 0.046210352 0.0058065704
-0.017005706 0.059959374 0.06588484 0.053398393 -0.031323493 -0.01120792 0.042293616 0.06352398
0.020799147 -0.07006123 -0.07841585 0.012185597 -0.019331455 0.008691596 0.08311988 0.026078932
-0.05412858 0.0057438337 -0.048521925 0.020001197 -0.0023344045 0.03800941 -0.06137459 0.031472225
0.057338707 0.07702926 -0.055292357 -0.023969378 -0.023923652 -0.07404006 -0.069797635 -0.06844028
-0.012796491 -0.003743044 -0.021260062 -0.03424576 -0.055208907 0.0015860061 -0.024903959 0.07811663
-0.029751694 -0.037630722 -0.053982046 -0.0678691 0.06353114 0.019487506 0.02930901 0.009066579
-0.00046707722 0.034988098 -0.063205294 -0.037723616 -0.02263702 -0.031702742 0.020684365 -0.021597847
0.05873416 0.010176395 -0.07585142 -0.018261243 0.019410312 0.010779679 -0.045318067 0.03201719

encoder.7.bias f4 [38]
00000000: dc9f 2e3d b0eb 40bc 64d1 68bd 7381 ec3c
00000010: 2ac4 45bd f562 7f3d 2434 1b3c d41b b53c
00000020: b27e f9bc 38c2 7fbd c80e 3e3d 43c9 f4bc
00000030: 6d91 573d 57e2 47bd 945a 2bbc f2d3 953c
00000040: ed0e 913d 115e b0bc 5ad8 043d c558 603d
00000050: 4786 87bd 3923 803d 6c71 3d3c 6ef6 1abd
00000060: 852a a23a 456e c03c 8eb6 043d c1f7 7ebd
00000070: dd66 fb3c b4a1 0c3d ad4f 45bd c854 b03c
00000080: 2484 7c3d dd4a a9bb b52c 00bd 1722 c1bc
00000090: b5ec 8fbd 52d7 2e3d
0.042632923 -0.011774942 -0.056840315 0.02887032 -0.04828278 0.062350232 0.0094728805 0.022107996
-0.03045592 -0.06244108 0.046400815 -0.029881125 0.052628923 -0.04879984 -0.010458607 0.01828954
0.07082925 -0.02152923 0.03243289 0.054772157 -0.06617408 0.06256718 0.011562686 -0.03783267
0.0012372291 0.02349008 0.03240066 -0.062247995 0.030688697 0.0343339 -0.048171688 0.021524802
0.061649457 -0.005166395 -0.031292636 -0.023575826 -0.0702757 0.042685814

encoder.8.weight f4 [38]
00000000: cbca 803f ba50 823f 448d 823f 71c3 7d3f
00000010: ea38 7f3f 0d2d 813f 5780 803f 185e 803f
00000020: e189 803f 1c3e 833f c6c0 7f3f f51a 813f
00000030: bb70 7f3f ea0e 813f f240 813f 97bd 823f
00000040: 9b61 7f3f 3750 7a3f fb00 7c3f a58c 7d3f
00000050: 6d02 7b3f 17ce 7a3f 3272 813f f502 823f
00000060: ceb7 7d3f 5715 813f 761b 7d3f f9ef 803f
00000070: ff3c 7e3f ff07 803f f477 7a3f 784a 7d3f
00000080: d360 7d3f 6235 823f 4303 813f 5517 7b3f
00000090: 7b21 7f3f 8c2e 7c3f
1.0061888 1.0180886 1.0199361 0.99126345 0.9969622 1.0091873 1.0039166 1.0028715
1.0042077 1.0253329 0.99903524 1.0086352 0.9978139 1.0082676 1.0097945 1.0214108
0.9975831 0.9777865 0.98438996 0.9904273 0.98050576 0.9797072 1.0112975 1.0157152
0.9910859 1.0084637 0.9887003 1.0073234 0.9931182 1.000244 0.97839284 0.98941755
0.9897587 1.0172541 1.007912 0.98082477 0.9966046 0.98508525

encoder.8.bias f4 [38]
00000000: b3b8 83bc 6501 4c3b d4f6 e33b d1b0 d4b8
00000010: df8a 38bc 9b68 76bc b731 4bbc 6d35 1cbc
00000020: e844 023b 2a68 92bc e8c8 903c 5f60 e23b
00000030: 8318 413c fbba 823c cbd0 823b fc46 823b
00000040: 618a 393b eebb 07bd aa5a 0dbc 17ec ddbb
00000050: f7c5 30bc 79ca 32bc bb3b 133c 48b2 363c
00000060: c619 4f3b 56db 883c 2a90 ddba 0658 03bc
00000070: df36 86bb fb78 033c 1889 9dbc b0dc 583b
00000080: 9422 3dbc ee92 163c 9629 9d3c 1613 543c
00000090: adb9 253c cc33 42bb
-0.016079282 0.003112876 0.0069569144 -0.000101418824 -0.011263578 -0.015039588 -0.01240199 -0.009534222
0.0019877497 -0.017871935 0.017673925 0.006908461 0.011785629 0.0159583 0.003992175 0.003975747
0.002831124 -0.033138208 -0.008627573 -0.006772529 -0.010789386 -0.010912531 0.008986409 0.011150904
0.0031601056 0.01670615 -0.0016903926 -0.008016592 -0.0040958966 0.008024449 -0.01923041 0.0033090524
-0.011543889 0.009190304 0.019184869 0.012944004 0.010115069 -0.0029632924

encoder.8.running_mean f4 [38]
00000000: 9055 863d d74a ea3d c3e2 e8bc ad38 0d3e
00000010: 56e6 d7bd d2ed db3e 9318 9bbd 857a 66be
00000020: a892 c0bd 5482 243e 167b 303e bd20 8dbe
00000030: a6d5 5c3e 2724 18bd dd97 763e 9bb4 c93e
00000040: ec7e 5e3e 89e3 15be 455f c5be 9805 623e
00000050: c261 863a 1407 fa3e 64be 1f3e 4949 9ebd
00000060: a788 6c3e 439a c7bc 74d9 563e fbb0 3d3e
00000070: 16dd 6a3e cd61 bbbd a7f6 b3be 991c 1f3e
00000080: 9715 003f b4dc d63d d2b9 91be 5709 59bd
00000090: 262d 53be 39ef 61be
0.065592885 0.11440056 -0.02842844 0.13791151 -0.1054198 0.4295488 -0.075730465 -0.22507675
-0.094029725 0.16065341 0.17234454 -0.2756404 0.21565875 -0.037143853 0.24081369 0.39395604
0.21728104 -0.14637579 -0.38549247 0.22072446 0.0010252523 0.48833525 0.15599972 -0.07728822
0.23099004 -0.02436555 0.2098139 0.18524544 0.229359 -0.091495134 -0.35149118 0.15538253
0.50032943 0.104913145 -0.28462082 -0.052987423 -0.20622692 -0.22063912

encoder.8.running_var f4 [38]
00000000: 3a21 6a3e 6c49 223e df98 113e ce2a 993e
00000010: 568e f13d 7c5c 8a3e 6ce8 4d3e f255 513e
00000020: e37e e53d 95d6 413e 35a5 1a3e 513c 9e3e
00000030: 9b85 d13e a608 a13e d2c3 863e c842 b53e
00000040: acdf 123e 04cb 323e 6729 203e b65b a93e
00000050: e43f 923e 36c0 223e df76 fc3e 54b6 e93d
00000060: 8957 573e c5b7 2c3e 1c68 333e 9d6f 323e
00000070: 55bc 613e a765 d43e c9c8 183e 7b00 ea3d
00000080: f53b 5d3e 0269 793e 9c19 7d3e 20e6 883e
00000090: d6f4 a53e cf99 903e
0.22864237 0.1584832 0.14218472 0.2991547 0.117947266 0.27023685 0.20108193 0.20442942
0.11205842 0.18929513 0.15102084 0.30905393 0.40922245 0.3145191 0.26321274 0.35402513
0.14343137 0.17460257 0.15640794 0.33077782 0.2856437 0.15893635 0.4930944 0.114117295
0.21029486 0.16866978 0.17520183 0.1742539 0.22044499 0.41483805 0.14920343 0.11425873
0.21604903 0.24356464 0.247168 0.2673807 0.32413357 0.28242347

encoder.10.weight f4 [38, 38, 5]
00000000: 27c0 ccbb a079 60bd ce18 b7bc 0f8f 64bd
00000010: cb2b a13c a5fc 6e3d f4a6 9dbd 40f9 923b
00000020: 2c11 3cbd 30b4 4cbd 38b1 003d 8951 b7bc
00000030: 655d c23d 188d 433d 89e7 113d 6c5a 7fbc
00000040: 0710 5a3d d91e 3d3c 3c75 8fbd e896 8ebc
00000050: 2b2d 90bc 1984 a5bc beaa 1cbd 62bc 103d
00000060: 0e57 d4bc fe51 823d ba39 08bd cc8b 85bd
00000070: 9502 b73c 3f30 77bd 02a4 793d 5be0 573d
00000080: 65ef b2bc 36a0 adbb 1938 293d 16f4 78bc
00000090: 330d 74bd 5a9a 7bbd 5cb2 413d 2fa1 9cbc
000000a0: ea82 53bc 2982 c73a f5fe 243d c0c7 b83b
000000b0: 1c1c 0abd ec09 9a3c e6cc 8d3d 147c 4fbd
000000c0: 140d 143d bbd2 15bb 8e9e 24bd a2ea 6b3b
000000d0: 0a07 c73c 387a 863c 885e b63c 4131 45bd
000000e0: 5e1f 063d fe89 1abd 8b1c 9fbd f863 6fbc
000000f0: 82dc 333d 3757 8bbd 3f8b 1b3d bfea 43bd
00000100: 0007 003d 4123 163b c02f 463d e884 39bd
00000110: c974 a2bc 18f5 453d 3417 053d 8d06 4cbd
00000120: a71b a6bc ecc1 043b 4e3a 2b3d e9c5 70bd
00000130: 5bc2 1dbd 074f ed3c b0ad 4dbc eb19 59bc
00000140: 6038 3b3d 7ed4 073c afb6 aabc a069 443d
00000150: e3f8 3f3d 9bcd fcbc 9d3c aebc 7603 7f3d
00000160: 9ac3 8dbb 2ef7 5abd f55e 1c3d 2378 473d
00000170: c59e 6bbc ab18 6bbd e76a 3e3d f56f 46bd
00000180: 63a2 6b3d 9ceb 30bc 8183 98bc a13b b7bc
00000190: c531 163b 1af2 c23c 6c45 733c cd8b ab3c
000001a0: 1781 79bc f7b2 733d 00e3 b83b 69f6 24bc
000001b0: 400e 5d3d fd65 813d d243 f1bc eb69 bb3c
000001c0: 62b4 243d 0426 8d3c d97c 803d 7176 07bb
000001d0: 12e8 82bc 74bb 793c 84b2 18bd dd22 163c
000001e0: f72d 993c 0755 103d 6a1a 4e3c 85d2 27bd
000001f0: f035 143c 71f2 88bc 1617 37bc ca95 7f3d
00000200: 9b79 df3c cf3a 873b 26d9 55bd 3369 d33c
00000210: cdfa a7bd 7df1 7cbd e467 40bd 7c40 9b3d
00000220: 1e58 a73c 3170 c83c bdb1 263d 7cd3 803c
00000230: a6a1 3dba 89ef fb3c a73e 0cbd 5baa c2bc
00000240: 6bea e13c 3381 753b f14d 46bd 58b6 f8bc
00000250: a9ba ffbb 2487 3dbd d5a3 28bd ffde 98bd
00000260: e84f d43c af93 eabc b917 233c 111c b93b
00000270: 134c 68bc c921 183d bff3 65bd a749 c03b
00000280: 2d55 bf3b 648d 2cbd ef57 66bc bfcc 923c
00000290: 8d79 773d d193 073d 631d 133d 4942 9a3d
000002a0: e311 493d 24ca 3abd 3214 bebb 48ee 1d3d
000002b0: f748 e5bc 8570 51bd db5c 843d 5598 693d
000002c0: 8cbd 4b3c d166 c03c 2574 d33c d53d 9abb
000002d0: 1424 30bd b9e2 5dbd 15cc b4bc 288e a0bc
000002e0: dac7 383d a116 013d ebf1 e5bc 5ff1 d93c
000002f0: 41dc 59bd da89 6c3d b582 72bd 5316 683d
00000300: 2538 8c3d 778b 893d 1e6a e9bc 4658 51bd
00000310: 88e5 8f3d 29f4 d0bb fb93 1fbc e132 fd3c
00000320: 7c1d 4f3c ea92 093d 6fbd 25bd e4cd a83c
00000330: 7329 443b a111 463d 5c26 77bd 4c17 733d
00000340: 8032 49bc 30c2 323c a9b8 f33c ef60 133d
00000350: 3c4f 423c dd83 563d fe2b 43ba e261 863d
00000360: ab95 a33c e25f cdbb 5efb 193d 3aa0 e23c
00000370: 853d 24bd 0a36 00bd eaaf d83c 1405 63bd
00000380: a0f6 47bc e9d6 b1bc bb74 7fbd 3f93 8dbd
00000390: e3ed 7cbd d39e 74bd e2b3 42bc cac2 0b3d
000003a0: da17 be3b 4a9c 6d3c 5a47 8d3d b106 7e3d
000003b0: da47 293c 1b4b 5fbd 4492 553d 97bf 97bb
000003c0: 09b1 1a3d f409 a0bd db32 7bbd 8131 3f3c
000003d0: 0f49 113d d4c6 bb3c 80a6 693d 5fc7 28bd
000003e0: be0a 8e3d e965 5e3d 4c9a 4fbd 764b 263d
000003f0: 3be2 1ebd 7c70 a73d e480 c03d 599b 83bc
-0.0062484923 -0.05480349 -0.022350695 -0.055800494 0.019674202 0.05834641 -0.076978594 0.0044852793
-0.045914814 -0.049976528 0.03141901 -0.022377746 0.0949047 0.04774198 0.0356212 -0.015585523
0.05323794 0.011542999 -0.070047826 -0.017405942 -0.017599663 -0.02020459 -0.03824877 0.035335906
-0.025920417 0.06363295 -0.033258177 -0.06520805 0.022340098 -0.060348745 0.060947426 0.052704196
-0.021842668 -0.0052986396 0.041313265 -0.015194913 -0.0595829 -0.061426498 0.047289237 -0.019119827
-0.01290963 0.0015221286 0.04028221 0.0056390464 -0.033718213 0.01880356 0.06923847 -0.05065544
0.036145285 -0.00228612 -0.040190272 0.0035998006 0.024295349 0.0164157 0.022261873 -0.048142675
0.032744758 -0.037729256 -0.07769116 -0.014611237 0.043911465 -0.06803744 0.037974592 -0.047831293
0.031256676 0.0022909197 0.04838538 -0.045292765 -0.019831078 0.048329443 0.03249283 -0.049810935
-0.020276858 0.0020257188 0.04180365 -0.05878249 -0.03851543 0.028968347 -0.012553617 -0.013250808
0.04570806 0.008290408 -0.020839063 0.047952294 0.046868216 -0.03085976 -0.021269137 0.06225916
-0.004326296 -0.053458385 0.038176496 0.048698556 -0.014381115 -0.057396572 0.04648867 -0.048446614
0.05752791 -0.010798361 -0.018617393 -0.0223673 0.0022917849 0.023797084 0.014848094 0.020940686
-0.015228531 0.059496846 0.005642295 -0.010068514 0.053968668 0.06318281 -0.029451285 0.022877654
0.04021109 0.017230041 0.06273813 -0.0020669962 -0.0159798 0.015242446 -0.03727962 0.0091635855
0.018698676 0.03523734 0.01257954 -0.04097225 0.009046063 -0.016717168 -0.011174938 0.06239871
0.027279666 0.0041268836 -0.052209042 0.025806999 -0.08202133 -0.06175374 -0.046974078 0.07580659
0.02042776 0.02446756 0.04069685 0.015725844 -0.00072338653 0.030753868 -0.034239437 -0.023762872
0.0275776 0.0037461042 -0.048414174 -0.030360386 -0.007804234 -0.04627146 -0.041171867 -0.07464408
0.025917009 -0.028634874 0.009954386 0.0056490977 -0.014178294 0.037141595 -0.056140658 0.005868155
0.005839011 -0.042127028 -0.014059051 0.017919896 0.060418654 0.033099953 0.035916697 0.07532174
0.049089324 -0.045602933 -0.0058007473 0.03855732 -0.027988894 -0.051132698 0.06463023 0.05703004
0.012435328 0.023486527 0.025812218 -0.004707078 -0.043003157 -0.054171298 -0.02206997 -0.019599035
0.04511247 0.03151572 -0.028069457 0.026604353 -0.053188566 0.057748653 -0.059206683 0.056661915
0.06846646 0.06716054 -0.028492983 -0.051109575 0.070262015 -0.0063767624 -0.009739871 0.03090805
0.012641307 0.033587374 -0.04046386 0.020605989 0.0029931932 0.048356656 -0.060339317 0.05934839
-0.012280107 0.010910556 0.029751139 0.035981115 0.011859711 0.05237185 -0.0007445215 0.065616384
0.019968828 -0.0062675336 0.037593238 0.027664293 -0.040097732 -0.031301536 0.02645107 -0.055424765
-0.012204796 -0.021708922 -0.062367182 -0.069128506 -0.061750304 -0.05972178 -0.011883708 0.034121312
0.005801183 0.014502594 0.06898375 0.0620181 0.010332072 -0.054514986 0.052141443 -0.0046309936
0.03776649 -0.078143984 -0.061327796 0.0116695175 0.035470065 0.022921957 0.057043552 -0.04120576
0.06935643 0.054296408 -0.05068426 0.04059931 -0.03878997 0.081757516 0.09399584 -0.016065286

encoder.10.bias f4 [38]
00000000: 6d98 fb3c 63b2 813c e7ae 75bd 948f 603d
00000010: 1e4a 43bd cec8 7abd d8e0 e2bb 636d 56bd
00000020: a5ad a83c 7f0e 04bd f4b2 8f3d 8380 4ebd
00000030: bdaa 913d 6e66 83bd 7236 d03c 604a 483d
00000040: da03 c13c 90b2 113c a6c6 8b3c 7a8c 413c
00000050: a860 7e3d 5537 31bd b3c4 32bd 28f2 1fbd
00000060: 6769 87bd eefc 083a 1817 3fbc 1717 48bd
00000070: a63a 37bd 1884 00bd 9f7f 073d 0f63 873b
00000080: 81d3 17bd fcab ab3c 445a 4dbd 3ef3 a03c
00000090: 59d9 adbc 3734 ef3c
0.03071233 0.015832132 -0.059981253 0.054824427 -0.047678106 -0.06122666 -0.006923776 -0.052350413
0.020590613 -0.032240387 0.070165545 -0.050415527 0.07112644 -0.06416021 0.025416587 0.048899055
0.023561407 0.00889267 0.017062496 0.011813277 0.062103897 -0.04326566 -0.04364462 -0.039049298
-0.06611901 0.0005225678 -0.011663221 -0.048850145 -0.044733666 -0.031375974 0.033080693 0.0041316818
-0.03706694 0.020956032 -0.050134912 0.019647237 -0.021221804 0.029199703

encoder.11.weight f4 [38]
00000000: ae92 7d3f 07d3 7e3f db07 833f 0fa1 833f
00000010: f13b 7d3f 1aab 7d3f c2e2 803f 88c5 7f3f
00000020: 8306 823f e1e8 803f b710 803f a89c 7d3f
00000030: 132c 7c3f 85c4 813f 1f5e 7f3f 50f8 7a3f
00000040: 03b9 813f 158a 813f b9ee 7d3f be96 803f
00000050: 214f 7c3f ce85 7c3f b719 803f da0c 803f
00000060: 78d0 793f 8c18 803f 9d67 803f 69f4 813f
00000070: c752 803f 5c32 803f 9ee5 803f bd9a 813f
00000080: c16a 7d3f 298a 7f3f 3f27 813f c5fe 7d3f
00000090: 8f5a 803f 7a12 7e3f
0.9905194 0.9954075 1.0236772 1.0283526 0.9891959 0.99089205 1.0069201 0.99910784
1.0158237 1.0071069 1.0005101 0.99067163 0.9850475 1.0138098 0.9975299 0.98035145
1.0134586 1.0120264 0.99192387 1.0046003 0.9855824 0.9864167 1.0007848 1.0003922
0.97583723 1.0007491 1.003162 1.0152713 1.0025262 1.0015368 1.0070074 1.0125347
0.9899102 0.9982019 1.0090102 0.9921687 1.0027636 0.99246943

encoder.11.bias f4 [38]
00000000: f271 7ebc 8666 28bb 2abf 3c3b d814 2b3c
00000010: 8740 19bb eb47 a5bc 9a8b 5c3c 8114 f2bb
00000020: b0b4 a4bc 753b 7b3b 4353 b53b 70d4 43bc
00000030: 457f 483b 7da5 603b dccc 4aba e1f3 18bd
00000040: 6f22 36bc c0f2 453b b343 1d3c 5a24 803c
00000050: 1959 91bc 3abd 71bc a4e8 68bb 8a06 0d3c
00000060: 47e3 c5bc 27ee 8dbc 6fc7 73bb d1f5 15bb
00000070: 9ab4 97ba 734e 98bb 0988 5dbb bdc0 9fba
00000080: 46cf 9cbb dde7 0bbc d867 f13b 62a0 403c
00000090: ea3c 0fbc acbd 413b
-0.015530096 -0.0025695874 0.0028800466 0.010441981 -0.0023384409 -0.020175895 0.013461018 -0.007387698
-0.02010569 0.0038335 0.005533607 -0.0119525045 0.0030593437 0.0034278326 -0.0007736215 -0.037341956
-0.011116608 0.0030204505 0.00959866 0.015642334 -0.01774268 -0.014754588 -0.0035539055 0.008607516
-0.024156226 -0.017325474 -0.003719773 -0.0022882114 -0.0011574209 -0.0046480238 -0.0033803007 -0.0012188178
-0.004785451 -0.008539167 0.0073671155 0.011756988 -0.00874255 0.0029562516

encoder.11.running_mean f4 [38]
00000000: c264 9a3d b500 ad3e 5d17 b23e 8005 c83d
00000010: c83f 67be 3baf a3be 5239 d53d 2382 4abe
00000020: 4e2f 19be 72cd 45bd 4d43 68bd 1b9b 0bbf
00000030: 0ba2 c13d 64c1 573e 2fad 85be 1d43 b2be
00000040: 5e37 9dbd 4a04 a8be 3171 adbe da02 d63d
00000050: faad a43e 7f8a b2bd a39b 49bf 0dbb 89bc
00000060: a3fc fcbe 9535 a13c ca5c 053f 6880 8cbd
00000070: 41bc 24bf 857c e2be cba3 09bf 89fa b03d
00000080: 4422 9dbe 55a3 ccbc 6d29 cbbd 57a4 edbe
00000090: 9e12 623e 5690 cebc
0.07538749 0.33789602 0.3478345 0.09766674 -0.22582924 -0.31969628 0.104113236 -0.19776206
-0.14959452 -0.04829163 -0.056704808 -0.5453355 0.09454735 0.21069866 -0.2610869 -0.34816828
-0.07676576 -0.32815772 -0.3387542 0.10449763 0.32163984 -0.08717822 -0.7875311 -0.016812826
-0.49411497 0.01967887 0.5209471 -0.06860429 -0.6434975 -0.44235626 -0.53765553 0.08641536
-0.30690205 -0.024980227 -0.09920011 -0.46414444 0.22077414 -0.02521531

encoder.11.running_var f4 [38]
00000000: ab05 573e e2b2 ac3e 420c 373e cb9c c73e
00000010: c23e 023e 1cf3 2c3e 0f2d 763e 0839 453e
00000020: 6681 893e ef87 813e c99e 913e 6742 953e
00000030: 0308 103e 806b 773e b850 423f 1b3c 693e
00000040: d901 ae3d 527e 813e a38e 573e b43c ca3e
00000050: 564b cf3e cf04 9d3e 6b86 ba3e 9ac3 453e
00000060: c777 283e 80cb 273e b91b 873e 163b 873e
00000070: 9f33 8a3e 93fb 923e 30cc fa3e 26fe 183e
00000080: a82f 543e fcc5 283e ca85 cb3d 8301 4a3e
00000090: a460 b73e b145 793e
0.20998256 0.33730227 0.1787577 0.3898681 0.12719253 0.16889614 0.24040626 0.19260037
0.26856536 0.25299022 0.28441456 0.29152223 0.14065556 0.24162102 0.7590442 0.22776835
0.08496446 0.25291687 0.21050505 0.39499438 0.40487164 0.3066773 0.36430678 0.19312897
0.16451941 0.16386223 0.26388338 0.26412266 0.2699251 0.2870756 0.48983908 0.149407
0.20721304 0.16481775 0.099376276 0.19727139 0.35815918 0.24342991

encoder.13.weight f4 [19, 38, 5]
00000000: 2873 1d3d 776b 323c 971d 56bd cb27 593d
00000010: b2a6 563c 47a6 623b 62e6 033d 7212 3b3b
00000020: 562c 063c 26c2 ad3d ed1a 36bd e600 203d
00000030: 3ec2 b93b bcc7 b03d 9f47 083d 780f 3abd
00000040: 24a3 bb3c 39e3 9fbd f1d3 a7bd c67c 38bd
00000050: 2493 f5bc a00d 313c d3e8 bcbc 2957 a4bd
00000060: 6319 323d 3c9f 2bbc 3047 003d 8294 80bd
00000070: 3db2 bfbc 45e1 6bbb 5892 2a3d 7621 e23c
00000080: 5ac2 7c3d 09c2 2c3d 63c6 95bd 5386 2bba
00000090: 7bc7 f0bc 96d5 573c 6033 863d 5d8b 56bd
000000a0: 54f6 0dbd 1805 103d d4a0 93bb df83 7bbd
000000b0: 6466 eabc 12f8 7bbd db32 92bd c1ab cfbc
000000c0: d613 3bbd d644 c5bd f755 aebd 52a0 27bc
000000d0: a60c 1fbc cb36 22bd 9c1a 943d 2f97 c83b
000000e0: b159 2fbd 9c14 a33a 16ae 9d3c 20be c43c
000000f0: 0833 003d 5e9a 103d 12ef 393d e106 fb3c
00000100: 7a1d 793d ae3d fd3c 341b 3f3c c4f6 4dbd
00000110: 6662 983d 7a9b 40bd 92c7 26bd 77e4 3fbc
00000120: 8b8b 413c 505f babb 6718 e13c f2e1 ccbc
00000130: d81a 90bc 2ad9 463d 7546 64bd 0e1f 223d
00000140: c373 403d c17e c0bc fd80 f9bb 5b28 2bbc
00000150: fa65 e53c 8b6a 69bd a272 58bc 2ce5 413d
00000160: 8372 4abc 778b ce3d 208f e03c 1daa d4bb
00000170: 0d7f 91bd 5538 3e3c e592 2bbd 3b87 0abd
00000180: b7c5 e3bc e4ef 3f3d 0911 913d b50a 103c
00000190: cbf3 703d 32d9 32bc b1e7 78bd 9661 49bc
000001a0: 1497 a23d e895 1fbd 3859 a83c 2aaa 4ebd
000001b0: ba23 7bbd 99d5 b03c d482 b43c 2715 153d
000001c0: 9a4b 83bd bdc2 65bd 524c b5bd aa54 193c
000001d0: 8ea6 0b3d fb97 73ba 2cc3 233d 1287 863d
000001e0: 7bbe c53a 2aff 94bc e30a 7b3d 657e 6a3c
000001f0: ce32 bfbc 72ea e6bc 4072 5b3d 2032 89bc
00000200: ac90 1dbd fd3a a33d cbda 8a3b f224 89bd
00000210: ff6e 9abc 9201 2abd 57ef d83c 3b0c 54bd
00000220: 49bd ac3c dea3 9ebd 8736 9cbc 0557 b9bc
00000230: efff fabc 8330 0c3d b008 97bd 7180 9fbd
00000240: a8c2 d93c a612 13bd 4411 353d c79c 79bd
00000250: 4c0b 203d ec75 b53c 22cc 993c d5dd 41bd
00000260: b6c1 493d 14e7 573d 8507 ce3c e8a6 073d
00000270: 47da 83bd 1011 4c3c 7bec 4fbd ad3e 9a3c
00000280: c603 cdbc d8e4 e93c 6a11 f7bc 821b c53b
00000290: c2cd 823d 8215 da3c 081e f93c b3e1 883c
000002a0: 5dfb 6cbd df90 d6bc 07d3 303b 0753 d8b9
000002b0: 79ff 033d 20af fb3c 9d7c 28bd b721 243d
000002c0: 16b5 81bb 7f0b 33bd 9402 243d 2da9 03bd
000002d0: efc3 863c dae2 c83b dc08 093d 5c27 a2bc
000002e0: 2e73 c33c b953 9abd 25d6 6cbd e696 66bd
000002f0: fe9f cfbc ecd7 12bc 6876 0ebc 17bc 963c
00000300: 7790 743d 4573 babc d82e 373b 27a1 433d
00000310: f87a 4d3d 0406 2c39 e067 e8bc 711b 433c
00000320: 7aba c0bc 5be6 90bd 00ac 43bd 4f9a 953b
00000330: 851a 073d 9c55 0e3d 827e 9dbc a187 113d
00000340: a8a4 9a3c 6213 2dbd ac2c 063d fc51 b0bc
00000350: d344 8c3d 6340 7a3d f1f0 bbbc 31ee 203d
00000360: 54e4 013d 3400 d7bb 5c62 94bb 52a2 f03b
00000370: d92f 473d a610 983d 4367 3fbd d506 ab3d
00000380: b865 abba 8a8d da3c 85b3 c23b 6aec ab3a
00000390: 2e5d 373c 60fa c4ba f504 0f3c f9f3 73bd
000003a0: 361d 793d 0140 053c 8580 e4bc 0383 753d
000003b0: 1abe 5bbd ab6c 733d ef13 27bb e8bb 983d
000003c0: 4621 1dbd 198f 05bd 4441 92bd 172e c03c
000003d0: 9acf 23bd fcb5 563d 2ab5 05bd f690 edbc
000003e0: 94c0 3f3c d34a a83c f1d4 743c 1ab4 893d
000003f0: c972 2d3d 3369 9bbd 8623 93bd 0a92 2dbd
0.0384399 0.010889879 -0.052274313 0.053016465 0.013101267 0.0034583972 0.032202132 0.002854493
0.008189281 0.084842965 -0.044459272 0.039063357 0.0056689074 0.08631846 0.03327143 -0.04542491
0.02290494 -0.07807011 -0.081947215 -0.04504087 -0.029977389 0.010806471 -0.023060238 -0.08024437
0.043481242 -0.010474976 0.03131789 -0.062783256 -0.02340042 -0.0035992425 0.04164347 0.027603846
0.061708786 0.042177234 -0.0731323 -0.0006543148 -0.029391995 0.013173481 0.06552768 -0.052379
-0.034658745 0.035161108 -0.004505256 -0.06140506 -0.028613277 -0.061515875 -0.07138606 -0.025350453
-0.045673214 -0.0963227 -0.0851249 -0.010231094 -0.0097076055 -0.039603036 0.07231638 0.006121538
-0.042810146 0.0012442055 0.01924805 0.02401644 0.031298667 0.035303466 0.04539401 0.030642929
0.060819127 0.0309132 0.011664201 -0.050284162 0.07440643 -0.047023274 -0.04071767 -0.011712185
0.011813055 -0.0056876317 0.027477456 -0.025010083 -0.017590925 0.048546948 -0.055731256 0.039580397
0.0469854 -0.023497941 -0.0076142536 -0.010446633 0.028002728 -0.056986373 -0.013210924 0.047337696
-0.012356403 0.100851946 0.027411997 -0.0064900056 -0.07104311 0.01161011 -0.041888136 -0.033820372
-0.027804239 0.046859637 0.07083327 0.008791615 0.05882625 -0.010916041 -0.060767833 -0.012291333
0.07938972 -0.03896132 0.020550355 -0.05045525 -0.06131337 0.021586226 0.02203504 0.036397126
-0.06410904 -0.05609392 -0.088524476 0.009358564 0.034094386 -0.0009292361 0.039981052 0.06568731
0.0015086675 -0.018188078 0.06128968 0.014312361 -0.023339655 -0.028187964 0.053575754 -0.016747534
-0.038468048 0.079702355 0.004237508 -0.066965 -0.018851755 -0.041505404 0.026481314 -0.051769476
0.021086352 -0.07746099 -0.01906897 -0.022624502 -0.030639617 0.034225952 -0.07374704 -0.0778817
0.026582077 -0.035906456 0.04420592 -0.06094053 0.039073274 0.022150956 0.018774096 -0.047330696
0.049257003 0.052710608 0.02515007 0.03311816 -0.064381175 0.01245524 -0.050762635 0.018828714
-0.025026213 0.028551504 -0.03015967 0.006015242 0.063869014 0.026621584 0.030409828 0.016709184
-0.057856906 -0.026192127 0.002698125 -0.0004126059 0.03222606 0.030723155 -0.041134465 0.040071215
-0.0039583547 -0.043712135 0.04004152 -0.03214376 0.01645085 0.0061305584 0.033455715 -0.019794159
0.023858633 -0.075355 -0.05782141 -0.05629625 -0.025344845 -0.008962613 -0.008695222 0.018400235
0.059708085 -0.022760043 0.0027951505 0.04776111 0.0501661 0.00016405439 -0.028369844 0.011908398
-0.023526419 -0.07075187 -0.047771454 0.004565514 0.032984275 0.034749612 -0.019225363 0.035529736
0.018877342 -0.042254813 0.032757446 -0.021523468 0.06849065 0.06109656 -0.022942038 0.039289657
0.03171189 -0.0065613035 -0.004528327 0.007343569 0.048629615 0.074250504 -0.046729337 0.083509125
-0.0013076579 0.02667882 0.0059418106 0.0013116722 0.011191649 -0.0015028231 0.008729209 -0.059558842
0.060818873 0.0081329355 -0.027893314 0.059939396 -0.05364809 0.059429806 -0.002549406 0.07457715
-0.03836181 -0.03260717 -0.07141355 0.023459477 -0.039992906 0.052419648 -0.032643475 -0.028999787
0.011703629 0.020543491 0.014943347 0.06723805 0.042345796 -0.075884245 -0.0718451 -0.0423756
